(32, 256, 256, 3)
(32, 29)
Model: "functional_1"
__________________________________________________________________________________________________
Layer (type)                    Output Shape         Param #     Connected to                     
==================================================================================================
input_1 (InputLayer)            [(None, 256, 256, 3) 0                                            
__________________________________________________________________________________________________
conv2d_1 (Conv2D)               (None, 256, 256, 32) 896         input_1[0][0]                    
__________________________________________________________________________________________________
conv2d_2 (Conv2D)               (None, 256, 256, 32) 9248        conv2d_1[0][0]                   
__________________________________________________________________________________________________
add (Add)                       (None, 256, 256, 32) 0           conv2d_2[0][0]                   
                                                                 conv2d_1[0][0]                   
__________________________________________________________________________________________________
conv2d (Conv2D)                 (None, 256, 256, 32) 128         input_1[0][0]                    
__________________________________________________________________________________________________
add_1 (Add)                     (None, 256, 256, 32) 0           add[0][0]                        
                                                                 conv2d[0][0]                     
__________________________________________________________________________________________________
max_pooling2d (MaxPooling2D)    (None, 128, 128, 32) 0           add_1[0][0]                      
__________________________________________________________________________________________________
activation (Activation)         (None, 128, 128, 32) 0           max_pooling2d[0][0]              
__________________________________________________________________________________________________
conv2d_4 (Conv2D)               (None, 128, 128, 64) 18496       activation[0][0]                 
__________________________________________________________________________________________________
conv2d_5 (Conv2D)               (None, 128, 128, 64) 36928       conv2d_4[0][0]                   
__________________________________________________________________________________________________
add_2 (Add)                     (None, 128, 128, 64) 0           conv2d_5[0][0]                   
                                                                 conv2d_4[0][0]                   
__________________________________________________________________________________________________
conv2d_3 (Conv2D)               (None, 128, 128, 64) 2112        activation[0][0]                 
__________________________________________________________________________________________________
add_3 (Add)                     (None, 128, 128, 64) 0           add_2[0][0]                      
                                                                 conv2d_3[0][0]                   
__________________________________________________________________________________________________
max_pooling2d_1 (MaxPooling2D)  (None, 64, 64, 64)   0           add_3[0][0]                      
__________________________________________________________________________________________________
activation_1 (Activation)       (None, 64, 64, 64)   0           max_pooling2d_1[0][0]            
__________________________________________________________________________________________________
conv2d_6 (Conv2D)               (None, 64, 64, 64)   36928       activation_1[0][0]               
__________________________________________________________________________________________________
conv2d_7 (Conv2D)               (None, 64, 64, 64)   36928       conv2d_6[0][0]                   
__________________________________________________________________________________________________
add_4 (Add)                     (None, 64, 64, 64)   0           conv2d_7[0][0]                   
                                                                 conv2d_6[0][0]                   
__________________________________________________________________________________________________
conv2d_8 (Conv2D)               (None, 64, 64, 64)   36928       add_4[0][0]                      
__________________________________________________________________________________________________
add_5 (Add)                     (None, 64, 64, 64)   0           conv2d_8[0][0]                   
                                                                 add_4[0][0]                      
__________________________________________________________________________________________________
add_6 (Add)                     (None, 64, 64, 64)   0           add_5[0][0]                      
                                                                 activation_1[0][0]               
__________________________________________________________________________________________________
max_pooling2d_2 (MaxPooling2D)  (None, 32, 32, 64)   0           add_6[0][0]                      
__________________________________________________________________________________________________
activation_2 (Activation)       (None, 32, 32, 64)   0           max_pooling2d_2[0][0]            
__________________________________________________________________________________________________
conv2d_10 (Conv2D)              (None, 32, 32, 32)   18464       activation_2[0][0]               
__________________________________________________________________________________________________
conv2d_11 (Conv2D)              (None, 32, 32, 32)   9248        conv2d_10[0][0]                  
__________________________________________________________________________________________________
add_7 (Add)                     (None, 32, 32, 32)   0           conv2d_11[0][0]                  
                                                                 conv2d_10[0][0]                  
__________________________________________________________________________________________________
conv2d_12 (Conv2D)              (None, 32, 32, 32)   9248        add_7[0][0]                      
__________________________________________________________________________________________________
add_8 (Add)                     (None, 32, 32, 32)   0           conv2d_12[0][0]                  
                                                                 add_7[0][0]                      
__________________________________________________________________________________________________
conv2d_9 (Conv2D)               (None, 32, 32, 32)   2080        activation_2[0][0]               
__________________________________________________________________________________________________
add_9 (Add)                     (None, 32, 32, 32)   0           add_8[0][0]                      
                                                                 conv2d_9[0][0]                   
__________________________________________________________________________________________________
max_pooling2d_3 (MaxPooling2D)  (None, 16, 16, 32)   0           add_9[0][0]                      
__________________________________________________________________________________________________
activation_3 (Activation)       (None, 16, 16, 32)   0           max_pooling2d_3[0][0]            
__________________________________________________________________________________________________
flatten (Flatten)               (None, 8192)         0           activation_3[0][0]               
__________________________________________________________________________________________________
dense (Dense)                   (None, 29)           237597      flatten[0][0]                    
==================================================================================================
Total params: 455,229
Trainable params: 455,229
Non-trainable params: 0
__________________________________________________________________________________________________
Epoch 1/60
  1/635 [..............................] - ETA: 0s - loss: 47.2993 - acc: 0.00
…
