(32, 256, 256, 3)
(32, 29)
Model: "functional_1"
__________________________________________________________________________________________________
Layer (type)                    Output Shape         Param #     Connected to                     
==================================================================================================
input_1 (InputLayer)            [(None, 256, 256, 3) 0                                            
__________________________________________________________________________________________________
conv2d_1 (Conv2D)               (None, 256, 256, 64) 1792        input_1[0][0]                    
__________________________________________________________________________________________________
conv2d_2 (Conv2D)               (None, 256, 256, 64) 36928       conv2d_1[0][0]                   
__________________________________________________________________________________________________
add (Add)                       (None, 256, 256, 64) 0           conv2d_2[0][0]                   
                                                                 conv2d_1[0][0]                   
__________________________________________________________________________________________________
conv2d_3 (Conv2D)               (None, 256, 256, 64) 36928       add[0][0]                        
__________________________________________________________________________________________________
add_1 (Add)                     (None, 256, 256, 64) 0           conv2d_3[0][0]                   
                                                                 add[0][0]                        
__________________________________________________________________________________________________
conv2d (Conv2D)                 (None, 256, 256, 64) 256         input_1[0][0]                    
__________________________________________________________________________________________________
add_2 (Add)                     (None, 256, 256, 64) 0           add_1[0][0]                      
                                                                 conv2d[0][0]                     
__________________________________________________________________________________________________
max_pooling2d (MaxPooling2D)    (None, 128, 128, 64) 0           add_2[0][0]                      
__________________________________________________________________________________________________
activation (Activation)         (None, 128, 128, 64) 0           max_pooling2d[0][0]              
__________________________________________________________________________________________________
conv2d_5 (Conv2D)               (None, 128, 128, 128 73856       activation[0][0]                 
__________________________________________________________________________________________________
conv2d_6 (Conv2D)               (None, 128, 128, 128 147584      conv2d_5[0][0]                   
…
__________________________________________________________________________________________________
conv2d_4 (Conv2D)               (None, 128, 128, 128 8320        activation[0][0]                 
__________________________________________________________________________________________________
add_4 (Add)                     (None, 128, 128, 128 0           add_3[0][0]                      
                                                                 conv2d_4[0][0]                   
__________________________________________________________________________________________________
max_pooling2d_1 (MaxPooling2D)  (None, 64, 64, 128)  0           add_4[0][0]                      
__________________________________________________________________________________________________
activation_1 (Activation)       (None, 64, 64, 128)  0           max_pooling2d_1[0][0]            
__________________________________________________________________________________________________
conv2d_8 (Conv2D)               (None, 64, 64, 256)  295168      activation_1[0][0]               
__________________________________________________________________________________________________
conv2d_9 (Conv2D)               (None, 64, 64, 256)  590080      conv2d_8[0][0]                   
__________________________________________________________________________________________________
add_5 (Add)                     (None, 64, 64, 256)  0           conv2d_9[0][0]                   
                                                                 conv2d_8[0][0]                   
__________________________________________________________________________________________________
conv2d_7 (Conv2D)               (None, 64, 64, 256)  33024       activation_1[0][0]               
__________________________________________________________________________________________________
add_6 (Add)                     (None, 64, 64, 256)  0           add_5[0][0]                      
                                                                 conv2d_7[0][0]                   
__________________________________________________________________________________________________
max_pooling2d_2 (MaxPooling2D)  (None, 32, 32, 256)  0           add_6[0][0]                      
__________________________________________________________________________________________________
activation_2 (Activation)       (None, 32, 32, 256)  0           max_pooling2d_2[0][0]            
__________________________________________________________________________________________________
conv2d_11 (Conv2D)              (None, 32, 32, 512)  1180160     activation_2[0][0]               
__________________________________________________________________________________________________
conv2d_12 (Conv2D)              (None, 32, 32, 512)  2359808     conv2d_11[0][0]                  
__________________________________________________________________________________________________
add_7 (Add)                     (None, 32, 32, 512)  0           conv2d_12[0][0]                  
                                                                 conv2d_11[0][0]                  
__________________________________________________________________________________________________
conv2d_13 (Conv2D)              (None, 32, 32, 512)  2359808     add_7[0][0]                      
__________________________________________________________________________________________________
add_8 (Add)                     (None, 32, 32, 512)  0           conv2d_13[0][0]                  
                                                                 add_7[0][0]                      
__________________________________________________________________________________________________
conv2d_10 (Conv2D)              (None, 32, 32, 512)  131584      activation_2[0][0]               
__________________________________________________________________________________________________
add_9 (Add)                     (None, 32, 32, 512)  0           add_8[0][0]                      
                                                                 conv2d_10[0][0]                  
__________________________________________________________________________________________________
max_pooling2d_3 (MaxPooling2D)  (None, 16, 16, 512)  0           add_9[0][0]                      
__________________________________________________________________________________________________
activation_3 (Activation)       (None, 16, 16, 512)  0           max_pooling2d_3[0][0]            
__________________________________________________________________________________________________
conv2d_15 (Conv2D)              (None, 16, 16, 1023) 4715007     activation_3[0][0]               
__________________________________________________________________________________________________
conv2d_16 (Conv2D)              (None, 16, 16, 1023) 9419784     conv2d_15[0][0]                  
__________________________________________________________________________________________________
add_10 (Add)                    (None, 16, 16, 1023) 0           conv2d_16[0][0]                  
                                                                 conv2d_15[0][0]                  
__________________________________________________________________________________________________
conv2d_14 (Conv2D)              (None, 16, 16, 1023) 524799      activation_3[0][0]               
__________________________________________________________________________________________________
add_11 (Add)                    (None, 16, 16, 1023) 0           add_10[0][0]                     
                                                                 conv2d_14[0][0]                  
__________________________________________________________________________________________________
max_pooling2d_4 (MaxPooling2D)  (None, 8, 8, 1023)   0           add_11[0][0]                     
__________________________________________________________________________________________________
activation_4 (Activation)       (None, 8, 8, 1023)   0           max_pooling2d_4[0][0]            
__________________________________________________________________________________________________
flatten (Flatten)               (None, 65472)        0           activation_4[0][0]               
__________________________________________________________________________________________________
dense (Dense)                   (None, 29)           1898717     flatten[0][0]                    
==================================================================================================
Total params: 23,813,603
Trainable params: 23,813,603
Non-trainable params: 0
__________________________________________________________________________________________________
Epoch 1/150
  1/635 [..............................] - ETA: 0s - loss: 106.1944 - ac
…
