(128, 256, 256, 3)
(128, 29)
Model: "functional_1"
__________________________________________________________________________________________________
Layer (type)                    Output Shape         Param #     Connected to                     
==================================================================================================
input_1 (InputLayer)            [(None, 256, 256, 3) 0                                            
__________________________________________________________________________________________________
conv2d_1 (Conv2D)               (None, 256, 256, 16) 448         input_1[0][0]                    
__________________________________________________________________________________________________
dropout (Dropout)               (None, 256, 256, 16) 0           conv2d_1[0][0]                   
__________________________________________________________________________________________________
conv2d_2 (Conv2D)               (None, 256, 256, 16) 2320        dropout[0][0]                    
__________________________________________________________________________________________________
add (Add)                       (None, 256, 256, 16) 0           conv2d_2[0][0]                   
                                                                 conv2d_1[0][0]                   
__________________________________________________________________________________________________
dropout_1 (Dropout)             (None, 256, 256, 16) 0           add[0][0]                        
__________________________________________________________________________________________________
conv2d (Conv2D)                 (None, 256, 256, 16) 64          input_1[0][0]                    
__________________________________________________________________________________________________
add_1 (Add)                     (None, 256, 256, 16) 0           dropout_1[0][0]                  
                                                                 conv2d[0][0]                     
__________________________________________________________________________________________________
max_pooling2d (MaxPooling2D)    (None, 128, 128, 16) 0           add_1[0][0]                      
__________________________________________________________________________________________________
activation (Activation)         (None, 128, 128, 16) 0           max_pooling2d[0][0]              
__________________________________________________________________________________________________
conv2d_4 (Conv2D)               (None, 128, 128, 32) 4640        activation[0][0]                 
__________________________________________________________________________________________________
dropout_2 (Dropout)             (None, 128, 128, 32) 0           conv2d_4[0][0]                   
__________________________________________________________________________________________________
conv2d_5 (Conv2D)               (None, 128, 128, 32) 9248        dropout_2[0][0]                  
__________________________________________________________________________________________________
add_2 (Add)                     (None, 128, 128, 32) 0           conv2d_5[0][0]                   
                                                                 conv2d_4[0][0]                   
__________________________________________________________________________________________________
dropout_3 (Dropout)             (None, 128, 128, 32) 0           add_2[0][0]                      
__________________________________________________________________________________________________
conv2d_6 (Conv2D)               (None, 128, 128, 32) 9248        dropout_3[0][0]                  
__________________________________________________________________________________________________
add_3 (Add)                     (None, 128, 128, 32) 0           conv2d_6[0][0]                   
                                                                 add_2[0][0]                      
__________________________________________________________________________________________________
dropout_4 (Dropout)             (None, 128, 128, 32) 0           add_3[0][0]                      
__________________________________________________________________________________________________
conv2d_3 (Conv2D)               (None, 128, 128, 32) 544         activation[0][0]                 
__________________________________________________________________________________________________
add_4 (Add)                     (None, 128, 128, 32) 0           dropout_4[0][0]                  
                                                                 conv2d_3[0][0]                   
__________________________________________________________________________________________________
max_pooling2d_1 (MaxPooling2D)  (None, 64, 64, 32)   0           add_4[0][0]                      
__________________________________________________________________________________________________
activation_1 (Activation)       (None, 64, 64, 32)   0           max_pooling2d_1[0][0]            
__________________________________________________________________________________________________
conv2d_8 (Conv2D)               (None, 64, 64, 64)   18496       activation_1[0][0]               
__________________________________________________________________________________________________
dropout_5 (Dropout)             (None, 64, 64, 64)   0           conv2d_8[0][0]                   
__________________________________________________________________________________________________
conv2d_9 (Conv2D)               (None, 64, 64, 64)   36928       dropout_5[0][0]                  
__________________________________________________________________________________________________
add_5 (Add)                     (None, 64, 64, 64)   0           conv2d_9[0][0]                   
                                                                 conv2d_8[0][0]                   
__________________________________________________________________________________________________
dropout_6 (Dropout)             (None, 64, 64, 64)   0           add_5[0][0]                      
__________________________________________________________________________________________________
conv2d_7 (Conv2D)               (None, 64, 64, 64)   2112        activation_1[0][0]               
__________________________________________________________________________________________________
add_6 (Add)                     (None, 64, 64, 64)   0           dropout_6[0][0]                  
                                                                 conv2d_7[0][0]                   
__________________________________________________________________________________________________
max_pooling2d_2 (MaxPooling2D)  (None, 32, 32, 64)   0           add_6[0][0]                      
__________________________________________________________________________________________________
activation_2 (Activation)       (None, 32, 32, 64)   0           max_pooling2d_2[0][0]            
__________________________________________________________________________________________________
flatten (Flatten)               (None, 65536)        0           activation_2[0][0]               
__________________________________________________________________________________________________
dense (Dense)                   (None, 29)           1900573     flatten[0][0]                    
==================================================================================================
Total params: 1,984,621
Trainable params: 1,984,621
Non-trainable params: 0
__________________________________________________________________________________________________
Epoch 1/150
  1/159 [..............................] - ETA: 1s - loss: 19666.5566 - ac
…
